…
  File "/home/daniel/anaconda3/envs/DeepSSM_SysID/lib/python3.7/site-packages/torch/cuda/__init__.py", line 192, in _lazy_init
    _check_driver()
  File "/home/daniel/anaconda3/envs/DeepSSM_SysID/lib/python3.7/site-packages/torch/cuda/__init__.py", line 102, in _check_driver
    http://www.nvidia.com/Download/index.aspx""")
AssertionError: 
Found no NVIDIA driver on your system. Please check that you
have an NVIDIA GPU and installed a driver from
http://www.nvidia.com/Download/index.aspx
DynamicModel(
  (normalizer_input): Normalizer1D()
  (normalizer_output): Normalizer1D()
  (m): STORN(
    (phi_y): Sequential(
      (0): Linear(in_features=1, out_features=50, bias=True)
      (1): ReLU()
      (2): Linear(in_features=50, out_features=50, bias=True)
    )
    (phi_u): Sequential(
      (0): Linear(in_features=1, out_features=50, bias=True)
      (1): ReLU()
      (2): Linear(in_features=50, out_features=50, bias=True)
    )
    (phi_z): Sequential(
      (0): Linear(in_features=2, out_features=50, bias=True)
      (1): ReLU()
      (2): Linear(in_features=50, out_features=50, bias=True)
    )
    (enc): Sequential(
      (0): Linear(in_features=50, out_features=50, bias=True)
      (1): ReLU()
      (2): Linear(in_features=50, out_features=50, bias=True)
      (3): ReLU()
    )
    (enc_mean): Sequential(
      (0): Linear(in_features=50, out_features=2, bias=True)
    )
    (enc_logvar): Sequential(
      (0): Linear(in_features=50, out_features=2, bias=True)
      (1): ReLU()
    )
    (prior): Sequential(
      (0): Linear(in_features=50, out_features=50, bias=True)
      (1): ReLU()
      (2): Linear(in_features=50, out_features=50, bias=True)
    )
    (prior_mean): Sequential(
      (0): Linear(in_features=50, out_features=2, bias=True)
    )
    (prior_logvar): Sequential(
      (0): Linear(in_features=50, out_features=2, bias=True)
      (1): ReLU()
    )
    (dec): Sequential(
      (0): Linear(in_features=50, out_features=50, bias=True)
      (1): ReLU()
      (2): Linear(in_features=50, out_features=50, bias=True)
    )
    (dec_mean): Sequential(
      (0): Linear(in_features=50, out_features=1, bias=True)
    )
    (dec_logvar): Sequential(
      (0): Linear(in_features=50, out_features=1, bias=True)
      (1): ReLU()
    )
    (rnn_gen): GRU(100, 50, bias=False)
    (rnn_inf): GRU(50, 50, bias=False)
  )
)
Python 3.7.6 (default, Jan  8 2020, 19:59:22) 
[GCC 7.3.0] on linux
tensor([[[-1.8831,  1.3314, -1.4694,  ...,  0.1990, -1.3169,  1.7266]],

        [[ 1.2198,  1.6492,  2.1869,  ...,  0.2883, -0.5065,  0.9036]],

        [[-1.7435, -2.0661, -1.0814,  ...,  0.3832, -1.9637, -2.2882]],
…
